model/keypoint_classifier/keypoint_classifier.tflite (tflite, 7712 bytes, 8 tensors)

sequential/dense_3/MatMul f4 [5, 16]
000000 28 8b 45 3f 78 3b 5a 3f c4 55 1c bf 1a f9 7b be
       0.7716546 0.8524699 -0.6106837 -0.24606743
000010 72 99 77 be 81 12 bb 3e f4 8f ba 3e e7 8b 3c bf
       -0.24179628 0.36537555 0.36437953 -0.73650974
000020 3e 23 17 bf 02 f1 26 3f 28 82 b4 3e d6 2e 54 3e
       -0.5903815 0.652115 0.3525555 0.20720991
000030 fa dd b1 3b 7f 63 a7 bd 59 4a 2b be 82 34 29 3f
       0.005428073 -0.08173274 -0.1672758 0.66095746
000040 ff 62 b3 bd 78 16 3e bf 54 b6 b2 3e bf e7 fe 3d
       -0.087591164 -0.74253035 0.3490473 0.12446546
000050 68 8c 1b bf e1 52 19 3d 63 e2 88 bb 0c 96 ac 3e
       -0.6076112 0.037432555 -0.004177378 0.33708227
000060 eb 4b 26 3e d8 7d 27 3e 72 1d 59 3f e0 e4 c9 3e
       0.16239898 0.163566 0.84810555 0.3943243
000070 b0 92 e5 3e f2 82 10 3f d1 9e 99 bf 9c ec 2f bf
       0.44838476 0.56449807 -1.2001592 -0.6872041
000080 77 89 10 bf 7c 1f 95 3e 1d 9e 1b 3f 2c 42 29 3e
       -0.56459755 0.29125583 0.60788137 0.16529149
000090 f7 ab 59 3f 7c bc 60 3f 5b ac e5 be 1b 55 82 be
       0.8502802 0.87787604 -0.4485806 -0.25455555
0000a0 70 bd 54 bf 01 66 98 be 28 b3 59 bf 75 e0 84 bf
       -0.8310156 -0.29765323 -0.85038996 -1.0380999
0000b0 59 2d 27 3f 30 75 4c bf 31 5e 5e bf 14 ef 57 bf
       0.6530357 -0.79866314 -0.86862475 -0.8434918
0000c0 bd 56 28 be cf b2 16 3e 67 2b 02 3f 07 70 c4 bf
       -0.16439338 0.14716648 0.50847477 -1.5346688
0000d0 f2 f3 71 bd 6e d9 25 bf 49 42 87 3f 13 d6 bd 3e
       -0.059070535 -0.64784896 1.0567104 0.37077388
0000e0 77 ca 82 3f 5c 98 1a 3e 56 46 02 3d 51 bd 3b 3e
       1.0218037 0.15097183 0.03180536 0.18333937
0000f0 5c fa af bf 38 a2 b2 3c 53 f7 21 3f 5b 0f 02 bf
       -1.3748279 0.021805868 0.6326801 -0.5080468
000100 b0 5b 8d bf e4 87 76 3e e5 9a a5 bf 65 99 28 3f
       -1.1043606 0.24075276 -1.2937895 0.6585906
000110 c9 f0 a6 3f 50 65 9f bf 40 bd dd be 09 36 63 3f
       1.3042232 -1.2452793 -0.4330845 0.88754326
000120 59 8d 32 bf bc 0b 72 bf 93 47 03 be 98 53 d5 be
       -0.6974693 -0.94549155 -0.12820272 -0.4166534
000130 66 b8 c7 be 5c 87 1d 3e 25 af 4e 3f 8c c9 9d 3e
       -0.39007872 0.15383667 0.80736 0.3081783

sequential/dense_2/MatMul f4 [16, 32]
000000 a2 21 0d bf 3b 13 cd 3d 3f 89 1b 3e e0 07 04 3c
       -0.55129445 0.100134335 0.15189074 0.008058518
000010 16 ff c8 3e 82 c9 d9 3e 4c 27 e8 3d 6a ab f4 bd
       0.39257115 0.4253655 0.1133562 -0.11946757
000020 30 0e 5d 3e b8 89 0a bf ba 5d 98 be d5 c2 02 3e
       0.21587443 -0.5411639 -0.29759008 0.12769635
000030 41 9c ff 3e eb f7 ae 3d e6 48 b7 be 14 74 8c 3d
       0.499239 0.0854338 -0.35797805 0.06858078
000040 94 19 c2 3e ee 6a a1 3e 48 4f 5d 3e 40 79 a2 be
       0.3791014 0.31526893 0.21612275 -0.3173313
000050 ea 8f a9 3e 51 8c 29 3f 22 3a 4c 3e a4 ef 22 3f
       0.3311761 0.6622973 0.19944051 0.6364691
000060 6b be 90 be 52 3e 89 bf 7c 82 fa 3d 47 e8 78 be
       -0.28270277 -1.0722144 0.12231919 -0.24307357
000070 7e ff 49 3d 50 b3 ee 3e 1c 9a 25 3f b9 a7 ad 3e
       0.049315922 0.4662118 0.6468828 0.33917025
000080 8d 24 da be 68 ad 57 be d3 b2 78 3e c2 cd 72 3e
       -0.4260601 -0.21062243 0.24286966 0.23711303
000090 c9 37 8c 3d fc 5e a3 3d 7e d3 d4 3e 21 d2 09 be
       0.06846578 0.07977101 0.41567606 -0.13459064
0000a0 b0 70 02 3f 3a 9e ef be d9 06 de be e4 0f e5 3d
       0.509532 -0.46800405 -0.433646 0.111846715
0000b0 cb c7 de 3c 78 0f c4 3e 34 25 e5 be c1 6d 05 bd
       0.027194878 0.38293052 -0.44754946 -0.032575373
0000c0 04 4a b4 3c 38 24 84 3e c2 90 2f 3f 78 a1 89 be
       0.02200795 0.25808883 0.6858026 -0.26881003
0000d0 f8 73 2b 3f 3a 73 e7 3e f2 cb 58 3e 55 40 60 3f
       0.6697383 0.45205098 0.21171549 0.8759816
0000e0 b4 c6 10 3f 14 06 39 bc f1 75 0f 3f 1f c3 4d bd
       0.56553197 -0.011292953 0.5603934 -0.05023491
0000f0 24 97 1a 3f 54 4e 07 3e 79 c9 9d 3e df 2b be 3e
       0.6038687 0.13213474 0.30817774 0.37142846
000100 d8 34 a0 3d c8 4e 26 3f ba 77 b5 3d b3 87 e8 3e
       0.07822579 0.6496396 0.08860727 0.4541603
000110 be 95 d8 3b 71 6a 4e 3e 54 e1 74 bf 32 1d 86 3f
       0.0066096475 0.20157792 -0.95656323 1.047766
000120 23 24 e5 3e 54 90 f4 3d ed 9e 73 3f a0 a3 78 3e
       0.44754133 0.11941591 0.95164376 0.24281168
000130 f3 a6 6a 3e ef 79 8f bf 78 83 b1 3d 6e c7 42 3f
       0.22915249 -1.1209086 0.08667654 0.76085556
000140 46 bc 54 be df c4 b0 3d 77 00 4a be 7c 1c 0d be
       -0.20774946 0.086313 -0.1972674 -0.13780397
000150 e3 48 8a 3e 41 98 a5 bd 5f ad 71 be 95 3b 08 3e
       0.27008733 -0.08085681 -0.23601292 0.13303979
000160 2f 50 12 bf 9a 40 2b 3f e4 83 9b bf 52 1c 96 3f
       -0.571536 0.6689545 -1.2149625 1.1727393
000170 36 b3 2d bf a7 c8 89 3e 79 be 60 3e 6d d3 37 bc
       -0.6785158 0.26910898 0.2194766 -0.011219841
000180 5f 6c 3f 3f 65 e9 1d 3f 74 9a 71 3e 2f 78 69 3e
       0.74774736 0.61684257 0.23594075 0.22799753
000190 f1 4e 62 bc ec 90 13 3d e1 13 06 3f 6a 8e ab bd
       -0.013812766 0.03602688 0.5237408 -0.08376773
0001a0 0b 10 2d 3e 78 04 30 3e f9 92 1f 3f f1 4b 1d bd
       0.16900651 0.17189205 0.6233364 -0.0384025
0001b0 5a 8f 02 be 03 f5 ad 3e b3 57 e5 3c c0 d8 a8 bd
       -0.12749997 0.33975992 0.02799592 -0.08244467
0001c0 49 11 00 bd 27 06 00 3e 51 22 d2 bd c8 6b a2 3f
       -0.031266484 0.12502347 -0.102604516 1.2689142
0001d0 75 31 5e 3d 81 88 b2 be 3f 23 6c 3f 1d 1b cb be
       0.054246385 -0.3486977 0.9224128 -0.39669123
0001e0 fb e4 13 3f 49 e6 ac 3e 97 15 ce 3d 05 fc 2d 3e
       0.5777127 0.33769444 0.10062712 0.16990669
0001f0 8a ad e5 3e 0f c6 8f 3d e7 65 e7 bd 79 7e 7c 3d
       0.44858962 0.070201986 -0.11298733 0.06164405
000200 10 10 28 3c 0e 5d 49 bb 2b d5 1a 3e e2 49 b6 be
       0.010257736 -0.003072563 0.1512038 -0.35603243
000210 06 e4 8b be cd 55 45 bd 7a 28 fb 3e 14 af a0 bd
       -0.27322406 -0.04817753 0.4905432 -0.078458935
000220 b4 df bf 3f 24 40 28 3e 4e dc 5d bf cc eb a2 be
       1.4990144 0.16430718 -0.86664283 -0.31820524
000230 22 bc 88 bf 6b 0a 1b 3f 54 2c 2d 3f 35 39 c6 be
       -1.0682414 0.6056277 0.67645764 -0.3871552
000240 67 58 a7 be d1 ad 2f be 93 ae 2b 3f 9c 1a 88 3b
       -0.32684633 -0.1715615 0.67063254 0.0041535627
000250 21 cc 62 3d 1a 6e 7b bf 70 06 12 3e ec 55 45 be
       0.055370454 -0.98214877 0.14260268 -0.19271058
000260 fa bc 8e 3f f7 be d8 3e 33 f5 bd 3e 08 50 6a be
       1.1151421 0.42333195 0.37101135 -0.22882092
000270 62 b0 ac 3e dd f6 19 bf 91 ab 10 bf 3d ad 2b 3f
       0.3372832 -0.6014231 -0.5651179 0.67061216
000280 44 bc ae be cb fb 68 3e 24 fe 61 3f ad 25 40 3f
       -0.3412801 0.22752301 0.8827841 0.7505749
000290 03 93 88 bd bc 7b 80 3f c9 60 af 3d 44 03 49 3f
       -0.06668665 1.0037761 0.08563382 0.7852061
0002a0 c6 18 80 3f ae eb 93 be 9c a4 f4 3e 50 48 10 3f
       1.000756 -0.28890747 0.47781837 0.5636034
0002b0 b1 d0 9b 3c da df 92 3d 07 10 22 bf 30 4b 18 3f
       0.01902041 0.071716025 -0.63305706 0.5948973
0002c0 6d bb 01 3f a0 cb 74 3f d1 8d ba be 71 6f 06 3d
       0.50676614 0.9562321 -0.36436322 0.032821123
0002d0 e7 ac 8f 3f ac fb 81 bd f8 36 a5 3e 86 e4 63 bb
       1.1224641 -0.06346831 0.322685 -0.0034773662
0002e0 5c 5c d9 be 93 ac 93 3d 66 07 cf 3d a3 06 0d 3e
       -0.42453277 0.0721065 0.10108833 0.13772063
0002f0 c9 90 c1 3e 74 f3 a6 3e a7 2f 6f be 89 b0 af 3f
       0.37805775 0.32607615 -0.23358022 1.3725749
000300 91 ac d6 be bb 44 cf 3d 3c 99 83 be f0 f0 f2 bd
       -0.41928533 0.10120531 -0.25702846 -0.118623614
000310 8d 68 ff 3e 2f 84 c7 be 8d 4d aa 3e c4 9c de 3e
       0.49884453 -0.38968036 0.33262292 0.43478978
000320 04 f1 55 be b1 b1 a9 3e 1a 0e 00 be b8 4e ed bc
       -0.20892721 0.3314338 -0.1250538 -0.0289682
000330 fb a3 15 3f 27 f0 1a bc 09 1b 8f 3e f2 bd a9 3e
       0.5845334 -0.009456671 0.27950314 0.3315273
000340 85 de 24 3f f0 12 5b 3d da 24 0a 3f 04 0f 4f bf
       0.6440204 0.053484857 0.5396248 -0.8088229
000350 af ad 2b 3e ff a9 26 3f 26 86 34 bf f6 48 80 3f
       0.16765474 0.65103143 -0.70517194 1.0022266
000360 32 10 9c be 68 e4 ea 3d c1 c6 9a be 5b 1b 8a 3e
       -0.30481106 0.11469346 -0.30229762 0.26973996
000370 df ea 33 bf 86 f6 b3 3e 78 1e 24 3f ca 1f 9c 3e
       -0.7028026 0.3514902 0.6410899 0.30493003
000380 a1 89 61 3f 61 9f 90 3e 53 e6 47 bf 4e df 0e bf
       0.8810063 0.28246596 -0.7808582 -0.55809486
000390 c7 a7 bf 3e cf c5 a0 be 1f 2d 4e 3e 68 d4 e8 3e
       0.3743269 -0.31400916 0.201344 0.45474553
0003a0 ab 9f bf be 2d 8a 92 3f 1e af 3f 3f a8 e2 b7 bd
       -0.37426504 1.1448418 0.7487658 -0.08978778
0003b0 a5 e4 5a bd c0 72 85 bc 82 63 98 3f 2f 2a 17 be
       -0.05344071 -0.016290069 1.1905367 -0.14762186
0003c0 f4 c3 bb bc 1b 1b 24 bf e4 f9 42 3e 45 e5 ba 3e
       -0.022920586 -0.6410386 0.19040638 0.36503044
0003d0 b4 bb 3e bf 08 13 1c bd fb d7 2a 3e 85 5a 17 bd
       -0.7450516 -0.038104087 0.16683953 -0.03695156
0003e0 55 78 51 3f a7 49 7c 3f 9f 77 80 3e 48 6d 8e 3d
       0.8182424 0.98549885 0.25091264 0.069544375
0003f0 00 c9 e0 3d 31 9d 88 3d af fc 8c bc 4c 81 39 bf
       0.10975838 0.06670607 -0.017210333 -0.72462916

sequential/dense/BiasAdd/ReadVariableOp f4 [32]
000000 37 97 ac be 0a 49 f3 be 02 14 33 3e c0 f5 ae be
       -0.33709118 -0.47516662 0.17488101 -0.34171867
000010 26 e5 e8 be 68 7a a1 be f9 2b 9b be 0f 6f 57 be
       -0.45487326 -0.315387 -0.30306986 -0.21038459
000020 7e 21 36 be 6b f6 d6 be 5b 85 81 be b1 38 b2 be
       -0.17786214 -0.41984877 -0.25297055 -0.34808877
000030 0d 36 35 be c0 99 b7 be c3 56 a3 be df dd a6 be
       -0.176964 -0.3585949 -0.3190213 -0.3259115
000040 11 17 6c be c1 9b 6d be a3 d0 71 be df 7a 91 be
       -0.23055674 -0.23203947 -0.23614745 -0.28414056
000050 02 e6 ad be a7 85 20 bf 3f 5b 0e bf 84 eb c8 be
       -0.33964545 -0.6270394 -0.5560798 -0.39242184
000060 47 d3 95 be 0b 0c 69 be b9 43 80 be ff 67 f7 be
       -0.29262754 -0.227585 -0.25051668 -0.4832153
000070 02 ff 89 be 2b 56 84 bd a2 73 26 be 4e 44 01 be
       -0.26952368 -0.06461748 -0.16255048 -0.12623712

sequential/dense_3/BiasAdd/ReadVariableOp f4 [5]
000000 5a 2d 9f be f5 13 62 be 90 46 bb 3e d5 ad c2 3d
       -0.31089288 -0.22077926 0.36577272 0.09505812
000010 c8 63 38 3e
       0.18006814

sequential/dense_2/BiasAdd/ReadVariableOp f4 [16]
000000 84 d3 be ba 95 7d a5 3e ea 95 13 3f ec 8c de 3e
       -0.0014558886 0.32322374 0.57650626 0.4346689
000010 4c f9 80 3f 4e cf e5 3e f2 16 8e 3e e4 9a 0c 3f
       1.0076079 0.44884723 0.2775188 0.54923844
000020 8c c2 1f 3f bf 38 48 3d 45 f5 85 3d 0d 4a 09 3e
       0.6240623 0.048882242 0.06540922 0.13407154
000030 b1 0a c3 3e 79 8b 27 3e e9 ad 00 3f 20 d9 82 3e
       0.38094094 0.16361798 0.50265366 0.25556278

sequential/dense_1/BiasAdd/ReadVariableOp f4 [32]
000000 8e c3 66 bd d5 4f de 3d 06 5d d7 3d 49 81 e3 3d
       -0.05633884 0.108550705 0.1051579 0.111086436
000010 84 df 57 3c 13 df ef 3d ca 1a 02 3b 4e a0 40 3e
       0.013175849 0.1171247 0.0019852393 0.18811151
000020 82 a9 d2 3d 56 63 22 3b ef ae 27 bb ae da 6b 3d
       0.10286237 0.0024778447 -0.0025586446 0.057581596
000030 cc d8 54 3c b7 1e c1 3c 02 3f 2c bd 6c cb ce 3d
       0.0129911415 0.023574216 -0.042052276 0.100973934
000040 89 43 43 bc 14 43 0b 3e 06 b0 08 ba 90 82 1d 3d
       -0.011917957 0.13599807 -0.0005214218 0.038454592
000050 3c ed dd 3d 58 0f b1 bd 32 73 61 3d 79 7a 1f bd
       0.108362645 -0.08645505 0.0550415 -0.03893516
000060 fc b0 47 bd 5a b7 dc 3d 78 d3 e7 3d 06 49 02 3e
       -0.04875277 0.10777159 0.11319631 0.12723169
000070 42 c8 1e 3e 09 f7 2d bd 5c 13 23 3b ae f5 d5 3d
       0.1550608 -0.04247192 0.0024883365 0.1044725

sequential/dense/MatMul i1 [32, 42] scale=0.006480564 zero_point=0
000000 0a dc d9 f9 06 fb 01 0f 32 19 01 bf c8 ce d6 00
       0.06480564 -0.2333003 -0.252742 -0.045363948 0.038883384 -0.03240282 0.006480564 0.097208455 0.3240282 0.1620141 0.006480564 -0.42123666 -0.36291158 -0.3240282 -0.2721837 0.0
000010 16 0d ce e5 20 f8 fc 38 fa 0b ed f1 27 d2 00 33
       0.1425724 0.08424733 -0.3240282 -0.17497523 0.20737804 -0.05184451 -0.025922256 0.36291158 -0.038883384 0.0712862 -0.12313072 -0.097208455 0.252742 -0.29810593 0.0 0.33050877
000020 07 06 1b d9 2a cc 10 e5 df 05 11 f6 e7 cf 15 e9
       0.045363948 0.038883384 0.17497523 -0.252742 0.2721837 -0.3369893 0.10368902 -0.17497523 -0.2138586 0.03240282 0.11016959 -0.06480564 -0.1620141 -0.31754762 0.13609184 -0.14905296
000030 00 dc f3 c9 35 4e fa 3e ed 12 27 d0 01 2f e9 ec
       0.0 -0.2333003 -0.08424733 -0.356431 0.3434699 0.505484 -0.038883384 0.40179497 -0.12313072 0.11665015 0.252742 -0.31106707 0.006480564 0.3045865 -0.14905296 -0.12961128
000040 fc e3 fd 0f 14 25 f5 0b f0 fb d9 0e e3 df 08 bc
       -0.025922256 -0.18793635 -0.019441692 0.097208455 0.12961128 0.23978086 -0.0712862 0.0712862 -0.10368902 -0.03240282 -0.252742 0.090727895 -0.18793635 -0.2138586 0.05184451 -0.44067836
000050 f5 e6 3e dc e9 0a c7 cf 0c 0c f8 16 e2 3c ee 0a
       -0.0712862 -0.16849466 0.40179497 -0.2333003 -0.14905296 0.06480564 -0.36939216 -0.31754762 0.07776677 0.07776677 -0.05184451 0.1425724 -0.19441691 0.38883382 -0.11665015 0.06480564
000060 e0 12 fb df fe f1 04 09 e9 fb 0d fd 34 1e c8 f6
       -0.20737804 0.11665015 -0.03240282 -0.2138586 -0.012961128 -0.097208455 0.025922256 0.058325075 -0.14905296 -0.03240282 0.08424733 -0.019441692 0.3369893 0.19441691 -0.36291158 -0.06480564
000070 09 d1 04 2b 14 05 f9 0d eb de 26 13 31 fd 18 20
       0.058325075 -0.3045865 0.025922256 0.27866426 0.12961128 0.03240282 -0.045363948 0.08424733 -0.13609184 -0.22033918 0.24626143 0.12313072 0.31754762 -0.019441692 0.15553354 0.20737804
000080 2c 4e 08 0b 1d 02 42 1a fd e4 01 25 ff 04 e0 e3
       0.2851448 0.505484 0.05184451 0.0712862 0.18793635 0.012961128 0.4277172 0.16849466 -0.019441692 -0.18145579 0.006480564 0.23978086 -0.006480564 0.025922256 -0.20737804 -0.18793635
000090 f7 0a d0 18 d8 f2 1c cc 21 01 fb 0f 0c e3 c6 d2
       -0.058325075 0.06480564 -0.31106707 0.15553354 -0.25922257 -0.090727895 0.18145579 -0.3369893 0.2138586 0.006480564 -0.03240282 0.097208455 0.07776677 -0.18793635 -0.3758727 -0.29810593
0000a0 31 14 16 16 f9 08 f4 e8 f1 e2 20 31 f1 bc 21 d4
       0.31754762 0.12961128 0.1425724 0.1425724 -0.045363948 0.05184451 -0.07776677 -0.15553354 -0.097208455 -0.19441691 0.20737804 0.31754762 -0.097208455 -0.44067836 0.2138586 -0.2851448
0000b0 45 cc fd da df 2e d1 f9 0b 18 00 f0 db 35 fe fa
       0.4471589 -0.3369893 -0.019441692 -0.24626143 -0.2138586 0.29810593 -0.3045865 -0.045363948 0.0712862 0.15553354 0.0 -0.10368902 -0.23978086 0.3434699 -0.012961128 -0.038883384
0000c0 2c e9 e1 20 e9 06 e6 11 2b 08 05 00 d6 2a 29 fc
       0.2851448 -0.14905296 -0.20089749 0.20737804 -0.14905296 0.038883384 -0.16849466 0.11016959 0.27866426 0.05184451 0.03240282 0.0 -0.2721837 0.2721837 0.2657031 -0.025922256
0000d0 f8 d1 d6 10 03 f2 3b f3 04 eb 1d d9 38 13 23 f2
       -0.05184451 -0.3045865 -0.2721837 0.10368902 0.019441692 -0.090727895 0.38235328 -0.08424733 0.025922256 -0.13609184 0.18793635 -0.252742 0.36291158 0.12313072 0.22681974 -0.090727895
0000e0 f9 e6 91 58 15 e2 2d f3 c5 e7 f7 05 09 20 24 cc
       -0.045363948 -0.16849466 -0.7193426 0.5702896 0.13609184 -0.19441691 0.29162538 -0.08424733 -0.38235328 -0.1620141 -0.058325075 0.03240282 0.058325075 0.20737804 0.2333003 -0.3369893
0000f0 15 f4 e0 27 ef da 1d fa 29 22 f2 0a fb e9 ee 25
       0.13609184 -0.07776677 -0.20737804 0.252742 -0.11016959 -0.24626143 0.18793635 -0.038883384 0.2657031 0.22033918 -0.090727895 0.06480564 -0.03240282 -0.14905296 -0.11665015 0.23978086

sequential/dense_1/MatMul i1 [32, 32] scale=0.01000477 zero_point=0
000000 07 68 ed e3 ce 01 01 f9 d6 0a 02 da d5 1d 09 1f
       0.07003339 1.0404961 -0.19009063 -0.29013833 -0.5002385 0.01000477 0.01000477 -0.07003339 -0.42020035 0.1000477 0.02000954 -0.38018125 -0.4302051 0.29013833 0.090042934 0.31014788
000010 ea ec 0a 33 e3 4d 1c f6 db d0 c3 1f 0d cb e8 f2
       -0.22010493 -0.2000954 0.1000477 0.5102433 -0.29013833 0.77036726 0.28013355 -0.1000477 -0.3701765 -0.48022896 -0.61029094 0.31014788 0.13006201 -0.5302528 -0.24011448 -0.14006677
000020 22 00 01 c6 dd 0f f0 f8 a7 20 f4 e3 3e fb 27 ef
       0.3401622 0.0 0.01000477 -0.58027667 -0.35016695 0.15007155 -0.16007632 -0.08003816 -0.89042455 0.32015264 -0.12005724 -0.29013833 0.62029576 -0.05002385 0.39018604 -0.1700811
000030 e6 b4 28 07 d6 34 fb e7 b9 b5 07 f7 20 f8 e8 1c
       -0.26012403 -0.7603625 0.4001908 0.07003339 -0.42020035 0.52024806 -0.05002385 -0.25011924 -0.71033865 -0.75035775 0.07003339 -0.090042934 0.32015264 -0.08003816 -0.24011448 0.28013355
000040 0a e6 08 f8 f3 c9 ea 04 e7 eb fe 50 1c ca ea b4
       0.1000477 -0.26012403 0.08003816 -0.08003816 -0.13006201 -0.55026233 -0.22010493 0.04001908 -0.25011924 -0.21010017 -0.02000954 0.8003816 0.28013355 -0.5402576 -0.22010493 -0.7603625
000050 42 fd 03 f7 19 b1 f2 cb f1 de 5d dd f5 3e 03 2a
       0.6603148 -0.03001431 0.03001431 -0.090042934 0.25011924 -0.79037684 -0.14006677 -0.5302528 -0.15007155 -0.3401622 0.9304436 -0.35016695 -0.11005247 0.62029576 0.03001431 0.42020035
000060 3e ee 2d f2 d5 07 02 36 c9 3c 02 1f 11 f3 12 09
       0.62029576 -0.18008587 0.45021465 -0.14006677 -0.4302051 0.07003339 0.02000954 0.5402576 -0.55026233 0.6002862 0.02000954 0.31014788 0.1700811 -0.13006201 0.18008587 0.090042934
000070 15 d9 3d 46 ff 4b fd e4 dc c2 0d 1e 2a f9 27 f4
       0.21010017 -0.39018604 0.61029094 0.7003339 -0.01000477 0.75035775 -0.03001431 -0.28013355 -0.36017174 -0.62029576 0.13006201 0.3001431 0.42020035 -0.07003339 0.39018604 -0.12005724
000080 00 c9 fc 31 f5 05 04 1c d2 01 25 05 eb 0e fe 18
       0.0 -0.55026233 -0.04001908 0.49023372 -0.11005247 0.05002385 0.04001908 0.28013355 -0.4602194 0.01000477 0.3701765 0.05002385 -0.21010017 0.14006677 -0.02000954 0.24011448
000090 e9 3a 00 05 4f 19 03 3e 76 42 e7 12 01 ec 3b cd
       -0.2301097 0.58027667 0.0 0.05002385 0.79037684 0.25011924 0.03001431 0.62029576 1.1805629 0.6603148 -0.25011924 0.18008587 0.01000477 -0.2000954 0.5902814 -0.5102433
0000a0 00 da 09 10 d8 b9 f4 13 c5 e7 f1 64 06 c1 e8 ef
       0.0 -0.38018125 0.090042934 0.16007632 -0.4001908 -0.71033865 -0.12005724 0.19009063 -0.5902814 -0.25011924 -0.15007155 1.000477 0.06002862 -0.6303005 -0.24011448 -0.1700811
0000b0 41 05 12 02 02 b8 f2 bd 0c 0d 5a da 07 2c 0b 13
       0.65031004 0.05002385 0.18008587 0.02000954 0.02000954 -0.7203435 -0.14006677 -0.6703196 0.12005724 0.13006201 0.9004293 -0.38018125 0.07003339 0.44020987 0.11005247 0.19009063
0000c0 96 25 0a 38 08 ba 17 12 f4 e6 fb 21 d5 f9 bc 05
       -1.0605056 0.3701765 0.1000477 0.5602671 0.08003816 -0.7003339 0.2301097 0.18008587 -0.12005724 -0.26012403 -0.05002385 0.3301574 -0.4302051 -0.07003339 -0.6803244 0.05002385
0000d0 18 11 d6 02 fe a2 28 d7 19 03 03 c0 c5 0f 0d 0c
       0.24011448 0.1700811 -0.42020035 0.02000954 -0.02000954 -0.9404484 0.4001908 -0.41019556 0.25011924 0.03001431 0.03001431 -0.6403053 -0.5902814 0.15007155 0.13006201 0.12005724
0000e0 02 c6 f3 ae 09 59 d5 03 fd 1b 07 e6 32 0f 41 df
       0.02000954 -0.58027667 -0.13006201 -0.8203911 0.090042934 0.89042455 -0.4302051 0.03001431 -0.03001431 0.2701288 0.07003339 -0.26012403 0.5002385 0.15007155 0.65031004 -0.3301574
0000f0 d8 e8 0b ed ea 37 d5 48 e2 f4 00 14 04 f8 dc 0f
       -0.4001908 -0.24011448 0.11005247 -0.19009063 -0.22010493 0.55026233 -0.4302051 0.7203435 -0.3001431 -0.12005724 0.0 0.2000954 0.04001908 -0.08003816 -0.36017174 0.15007155
